data.pth (torch, 3671 bytes, 6 tensors)

l1.weight f4 [8, 27]
000000 70 47 38 bd 87 7f 04 be b0 c6 0f 3c 28 7a 8f 3c
       -0.044990003 -0.12939273 0.008775398 0.017514303
000010 b4 84 5f 3d 4e 15 ec bd 40 d0 03 bd 28 af 14 3d
       0.054569915 -0.11527501 -0.032181025 0.036299855
000020 77 68 21 3e 00 c9 57 bd 25 a5 43 3e b8 b0 df 3c
       0.15762506 -0.052681923 0.19105966 0.027305946
000030 7c 9c 60 bd 14 5a 74 bd 7b 89 37 be 92 31 39 be
       -0.054836735 -0.059656218 -0.17923538 -0.18085316
000040 ee 5b d7 3d 78 0b 04 be b4 b9 4d 3d b8 03 88 bd
       0.10515581 -0.12895 0.05022593 -0.06641334
000050 d4 2e 7a 3d ac c5 01 be 1d a9 ad bd 51 d7 82 3d
       0.061079815 -0.12673062 -0.084795214 0.063887246
000060 25 94 40 3d 2c a1 43 bd 98 ad 89 3c 74 40 92 3e
       0.04701628 -0.047761127 0.016806409 0.285648
000070 9d 26 61 be 2b 7f 6b 3e d9 26 99 bd 8a bf 3a be
       -0.21987386 0.2299773 -0.07478113 -0.18237129
000080 7d f8 b8 bc dd 44 1b 3e 21 27 2a be 59 ba 4f 3e
       -0.022579426 0.15162988 -0.16616489 0.2028593
000090 29 37 a9 3c 4a f4 c2 3d 54 09 f0 3e 60 3a 95 3e
       0.020656185 0.09519251 0.46882117 0.291461
0000a0 16 f2 fb 3e 67 2e 52 3e d7 b3 f2 3e c5 b6 21 be
       0.49208134 0.20525514 0.47402832 -0.15792377
0000b0 c4 dd 76 bc 49 b2 40 be e4 86 92 be cf 51 ad 3e
       -0.0150675215 -0.1881801 -0.28618538 0.33851478
0000c0 0d d5 c4 3e 54 e2 b2 3d 7d 96 21 3f 60 6b d9 3c
       0.38443795 0.08734575 0.6312025 0.026540458
0000d0 dc ec f0 be 54 1c 5d be a5 42 9e 3e b0 f4 4a be
       -0.4705571 -0.21592838 0.3091022 -0.19819903
0000e0 80 f0 81 3d 1b 89 5c be a9 78 65 be de 8c 17 be
       0.063447 -0.21536677 -0.2240931 -0.1479983
0000f0 2f 17 b4 3e 75 1a d9 3d 4c 34 15 3e 8d 3b b2 be
       0.35173938 0.106007494 0.14570731 -0.3481106
000100 8a f4 3d bd d1 06 76 be eb 5a a4 3d ed 85 49 3f
       -0.04637579 -0.24026038 0.08025154 0.7871998
000110 e7 2b 96 3e 0c 69 22 3f d3 f6 67 3f 6a 11 af bd
       0.2933037 0.6344154 0.90611 -0.08548243
000120 fa e3 fe bd ee 8c 8e bd c2 b6 98 3e 72 91 0b 3b
       -0.12445827 -0.06960474 0.29826933 0.002129641
000130 da dd fb 3d 8d c2 3b 3f c6 a7 75 be 15 07 59 3d
       0.12298174 0.73343736 -0.23989782 0.05298527
000140 db 7b 57 be b7 07 1c 3e f4 04 f7 3e 8f 27 2f bc
       -0.21043341 0.15237318 0.48245966 -0.010690584
000150 0c d3 b3 be 28 29 d1 be 4e b8 75 be d2 c0 e2 bd
       -0.35121953 -0.40851712 -0.23996088 -0.11071934
000160 a8 4a f0 bc ec 43 45 be e4 57 26 bf 8e 6f fc 3c
       -0.029332474 -0.19264191 -0.6497786 0.030814912
000170 49 9b 87 be 5f 9e 3d be 29 b9 3c 3f eb 22 4d be
       -0.2648566 -0.18517445 0.7372003 -0.20032851
000180 87 f4 43 3f 78 58 69 3f b2 7c c3 be 84 48 89 be
       0.76544994 0.9115062 -0.38181072 -0.26813138
000190 07 df 81 be 8a 4c 5f bd 24 1d 55 be 7b 07 1a be
       -0.2536547 -0.054516353 -0.20811898 -0.15041916
0001a0 8b 44 25 3f 61 53 ba 3d e5 82 40 3e c6 2d a4 be
       0.64557713 0.090979345 0.18799932 -0.32066172
0001b0 1a e1 e5 3e 07 87 35 3c 8e c4 91 3e 90 53 9a 3c
       0.448983 0.011079556 0.28470272 0.018838674
0001c0 fa 4e 71 bd 6c ef ee 3c 3c e0 bf 3e 16 dd 0f be
       -0.05891321 0.0291669 0.37475765 -0.14049181
0001d0 5c 8e 66 3e 20 75 4f bd 54 ac c9 3d 40 82 1f 3f
       0.22515243 -0.05064881 0.09847322 0.6230812
0001e0 bd 22 08 3e b2 01 be be 01 ca 88 3e a1 9a 93 be
       0.13294502 -0.37110668 0.26716617 -0.2882891
0001f0 56 4b de 3e b4 bd a9 3c cb 84 2d be b6 ff da bc
       0.43416852 0.02072034 -0.16945188 -0.02673326
000200 37 2e a6 3e ed da 94 3e fb fb ea 3e 39 d5 90 3d
       0.32457134 0.29073277 0.4589537 0.07071919
000210 91 e3 e8 be 50 c8 d9 bd 98 ca 8a 3d a3 3e a8 be
       -0.4548612 -0.1063391 0.06776923 -0.32860288
000220 13 0d 11 3f 33 bf 10 be 40 89 1b 3f 14 56 df 3e
       0.56660575 -0.14135437 0.607563 0.4362036
000230 df d6 0b 3f 57 12 a1 be 48 73 3a 3f 33 92 5d bd
       0.5462474 -0.31459305 0.72832155 -0.054094505
000240 96 e3 e2 3e b7 36 e8 bd 6c 15 39 bf 7e 99 08 3d
       0.4431426 -0.11338561 -0.7229831 0.033349507
000250 a6 65 22 3f 3f b5 67 bd 16 7c 19 3f a5 73 cd bd
       0.63436353 -0.056569334 0.59954965 -0.10031823
000260 9e d2 17 3f 66 78 19 3f 92 a2 19 3f 83 95 1b be
       0.5930575 0.5994934 0.6001369 -0.15193753
000270 7b 66 64 be 96 d3 b8 be 18 1c df bb ba 75 73 3f
       -0.22304718 -0.36098927 -0.006808769 0.9510151
000280 25 e9 48 3f 7d 29 fb 3e 4f 34 f5 3e 99 73 8d 3e
       0.7848075 0.4905509 0.4789147 0.27627257
000290 5e df 9e 3e 09 63 1c bf 6d 85 31 be 1f e7 9c be
       0.3102979 -0.61088616 -0.17336054 -0.3064508
0002a0 4c 8d d5 3e b8 a1 8a 3e 0c f4 03 3f a7 aa 18 bf
       0.41709363 0.27076507 0.5154426 -0.59635395
0002b0 3d 61 ed 3e 7c 2a 3b 3f bb 20 d0 3e d5 f3 ab be
       0.4636325 0.731117 0.4064997 -0.33584467
0002c0 28 ce 76 3e c5 72 b5 be 87 41 98 be 32 70 e4 be
       0.2410208 -0.35439125 -0.29737493 -0.44616848
0002d0 92 2a 14 be a2 f1 b0 be ce 94 42 3e 27 95 86 3e
       -0.14469364 -0.3455935 0.19002077 0.2628567
0002e0 29 39 e7 3e 54 5e 93 be 89 01 55 3e fc 22 bb 3e
       0.45160797 -0.28782904 0.20801367 0.36550128
0002f0 40 b2 0b be f7 62 b4 3e ad bc eb bd fc c5 86 3e
       -0.13642216 0.35231754 -0.115105964 0.26322925
000300 38 e9 bd 3e 8a d8 e9 3e f4 7f dc 3e 05 39 37 3e
       0.37091994 0.4567302 0.4306637 0.17892845
000310 d0 d8 eb bd b4 99 a9 3e 7c 0b 97 3e 8d 5f 3c 3e
       -0.11515963 0.3312508 0.2950095 0.18395825
000320 94 da 26 3f aa fb aa 3e 9a a4 51 be 5a dd 6a 3e
       0.65177274 0.3339513 -0.20472947 0.22936001
000330 f9 95 82 be ee 9f 95 3e bb 0b 8c 3e df 4d c7 3e
       -0.25505045 0.2922358 0.273527 0.38926598
000340 89 14 ac 3e 13 4a 7d 3e f0 2f 78 3e 8f 2a e4 3e
       0.33609417 0.24735288 0.24237037 0.4456372
000350 a0 36 d8 bd 71 e4 5e be 29 4b 9f bd 74 02 76 3e
       -0.10557294 -0.21766831 -0.077780075 0.24024373

l1.bias f4 [8]
000000 8f ba 0a be d4 e9 29 3f 1b f0 24 3f 20 5f 40 3f
       -0.13547729 0.6637242 0.6442887 0.7514515
000010 44 ca 0c 3f c9 1a 39 3f b7 57 d6 3e 6c 38 d2 3e
       0.5499613 0.72306496 0.41863796 0.4105867

l2.weight f4 [8, 8]
000000 e3 11 8f 3e 00 98 88 3f 21 1c 89 3f 13 bd 32 3f
       0.27943334 1.0671387 1.0711709 0.69819754
000010 fd 8e a8 3e 73 00 39 be 62 c9 14 bf 83 43 0a 3f
       0.3292159 -0.18066578 -0.58119786 0.54009265
000020 26 34 c4 3d 71 8d 2a 3f 4b 5d 21 3f c2 ca 61 3f
       0.09580259 0.6662207 0.6303298 0.8820001
000030 92 38 c8 3e 8c c1 38 bd 65 4c 68 3f eb 5c fb bc
       0.3910566 -0.045106456 0.9074157 -0.030683955
000040 a2 b3 bb be 63 7e 30 3f 23 0e 4a 3f fe 3c b0 3e
       -0.36660486 0.6894285 0.7892782 0.34421533
000050 a7 8b 4a 3f 3a ec 19 bf 4a fa 2f 3f dd dd 54 3f
       0.7911934 -0.6012608 0.68741286 0.83151037
000060 8c 9b 52 3e b6 98 8e bb f1 ad 23 bf 3c 90 eb be
       0.20567149 -0.0043517007 -0.6393729 -0.4600848
000070 34 a6 90 3d 3a a6 32 3f bc 79 41 bf 79 bc 88 3f
       0.07062951 0.6978489 -0.75576377 1.0682517
000080 ff da 9e 3d d8 c0 34 bf ee 26 ea be 0e e6 17 bf
       0.07756614 -0.70606756 -0.45732826 -0.5933541
000090 07 25 7c bf 36 28 87 3f 0f 74 ec 3d 82 51 93 3d
       -0.98494 1.0559146 0.11545574 0.07193281
0000a0 e5 79 b2 bc 9f ad 3d 3f c6 b4 75 3d da 01 aa be
       -0.02178664 0.7409305 0.059986852 -0.33204538
0000b0 c3 12 63 3f e1 1d 44 bf 90 61 81 3f 41 89 77 3f
       0.88700503 -0.7660809 1.0107899 0.9669381
0000c0 db e6 11 bd eb 40 32 3e 2b a4 0a 3f ab 1a 4e 3f
       -0.03562055 0.17407577 0.5415675 0.8050944
0000d0 aa d1 2f bf fd 14 4a 3f ee 6a 35 3e ec d7 33 bf
       -0.68679297 0.78938276 0.17716572 -0.70251346
0000e0 16 93 30 be 29 c3 f4 3e b1 dd e8 3e ad e2 75 3f
       -0.17243609 0.47805145 0.45481637 0.96049005
0000f0 87 2d 2f be 57 a1 90 3b 65 37 98 3f 0f e4 81 be
       -0.17107211 0.0044137645 1.1891905 -0.25369307

l2.bias f4 [8]
000000 1a 61 4c bd 1f bd 24 3e 56 6c 62 3e 1f ee d0 3e
       -0.04989729 0.16087769 0.2211164 0.40806672
000010 16 ba 31 3f 26 43 19 3e 8c e1 fc 3e 5f a3 65 3e
       0.6942457 0.14967021 0.4939083 0.22425602

l3.weight f4 [4, 8]
000000 97 30 96 bf 43 eb 81 3e e9 6e 4f bf cf 11 ef be
       -1.1733578 0.25374803 -0.8102861 -0.46693274
000010 5a 2b a3 3e ec 8d 64 3c c2 ee e9 3e 62 2d 3f 3f
       0.31869012 0.013949852 0.4568997 0.74678624
000020 66 33 27 3e a8 6b 1a 3e fb 48 31 3f e0 d5 44 be
       0.163282 0.1508013 0.69251984 -0.19222212
000030 18 31 96 be e7 7c 50 3f b1 38 82 bf ec bd e3 3d
       -0.2933433 0.81440586 -1.0173551 0.11120209
000040 2a 92 5d 3f 95 4f b7 3e 69 7c 09 3e c8 d6 61 bf
       0.86551154 0.35802904 0.13426365 -0.88218355
000050 6d 60 4d bf 8a 33 49 bf 6c 68 0b 3e c1 b6 d1 3e
       -0.8022526 -0.7859427 0.13614053 0.40959743
000060 71 1f 65 be 73 45 45 bf 0e f1 c4 be 05 fc 6e 3f
       -0.22375275 -0.77059096 -0.3846516 0.933533
000070 b4 2c 19 3f 12 28 92 be a9 e8 89 3e 85 62 82 bf
       0.59833837 -0.28546196 0.26935318 -1.0186316

l3.bias f4 [4]
000000 b6 06 3c bb 69 72 c7 3d 0b e0 24 3e 50 ea 83 3e
       -0.0028690523 0.09738619 0.1610109 0.25764704
