data.pth (torch, 4823 bytes, 6 tensors)

l1.weight f4 [8, 50]
000000 58 cf 03 3e 21 65 33 be 1e fc 1e bd b2 5e 5f be
       0.12872064 -0.17519046 -0.038814656 -0.21813467
000010 0f 6d be be a1 b8 b1 be 81 e1 34 3f e9 00 80 3d
       -0.3719258 -0.34711173 0.7065659 0.062501736
000020 56 f7 81 be 5e a2 67 3d d0 7a c7 3e e0 b8 02 be
       -0.25384015 0.05655133 0.38960886 -0.12765837
000030 47 4b 06 3e c3 8e 4c 3f 52 14 cd bc ab 12 d6 3e
       0.13114654 0.7990534 -0.025034104 0.41811118
000040 86 45 62 be 2b c8 90 be f7 34 06 be 5e 38 93 bd
       -0.22096834 -0.28277716 -0.13106142 -0.071884856
000050 82 2b 54 bd 1b b7 ab be 15 44 31 be c4 8b ab be
       -0.051799305 -0.33538136 -0.17311127 -0.3350507
000060 54 e4 68 be ae 8c ab be b0 9d 6d bc 6e 78 6f be
       -0.2274335 -0.33505768 -0.014502928 -0.23385784
000070 7d 69 e6 3e 99 07 f4 be 00 e0 a0 3d dc ef c0 bd
       0.45002356 -0.47662047 0.078552246 -0.094207495
000080 51 71 65 be dd e3 2a 3c b3 99 e3 be a0 22 77 3e
       -0.22406508 0.010430303 -0.444532 0.24134302
000090 6c 88 f3 bd 85 20 ee bd 6e 3f c6 be e6 fa 9c 3e
       -0.11891255 -0.11627296 -0.38720268 0.3066017
0000a0 58 c0 c4 be 2e 14 0a 3f dd e7 dd be 68 63 89 be
       -0.38427997 0.5393704 -0.4334096 -0.26833653
0000b0 71 53 d9 3e 59 84 a7 be 20 f0 73 bf a9 33 1e 3f
       0.42446473 -0.3271816 -0.95288277 0.6179758
0000c0 83 fe 66 3f 73 ee 80 3e 50 b0 6b 3d 41 ba 97 3e
       0.90232104 0.25181922 0.05754119 0.29634288
0000d0 32 59 bc 3e 86 16 c8 3e 31 fa 13 bf 84 63 88 be
       0.367868 0.39079684 -0.57803637 -0.26638424
0000e0 ea 70 ea bc bb 39 16 3e 72 29 96 be 8b 77 c1 be
       -0.028618295 0.1467046 -0.29328495 -0.37786517
0000f0 c7 9b e6 3d e9 dc 5a 3e 55 0d 23 3f c7 d6 34 3f
       0.11260181 0.21373333 0.6369222 0.70640224
000100 4c db c6 3e bd cc bd 3e 6e 87 2c 3e 03 b1 bd 3e
       0.38839185 0.37070265 0.16848537 0.37049112
000110 b3 6e 81 3e f7 7f a9 be 1d d5 0a 3e 63 72 10 3f
       0.2527977 -0.33105442 0.13557859 0.5642454
000120 26 bf 2d 3e 41 19 9c be 39 25 a6 3d 6b a0 b2 be
       0.16967449 -0.30488017 0.081125684 -0.34888014
000130 74 69 95 3e 19 1c b1 3e 1f d7 22 3f 13 f9 a8 3e
       0.29182017 0.3459175 0.636095 0.3300253
000140 1e 53 e8 3e e0 d6 b7 3d e8 c8 29 3e 31 ee 14 3f
       0.45375913 0.08976531 0.16580546 0.5817595
000150 f2 9c d8 3e ca ea 3f be dc 72 93 3e 9e d3 f5 3d
       0.4230724 -0.18741909 0.28798568 0.120032534
000160 b2 19 d3 3e 4b b3 03 3f 69 7b a2 3d a4 6f 51 3f
       0.4123054 0.51445454 0.07933695 0.81810975
000170 7a 80 c0 be d3 34 69 3f 5f cc f4 3e 0a 3a d3 3e
       -0.3759802 0.9109623 0.47812173 0.41255218
000180 88 ed ce be 0e 99 c2 3e 82 48 6f 3e 5b a1 7a be
       -0.40415597 0.38007396 0.23367503 -0.24475615
000190 f2 6c 00 3f 3b db e1 3e fb 1d c5 3e b8 1c 10 3e
       0.5016624 0.44112572 0.38499436 0.14073455
0001a0 16 65 1c 3f a6 bb 04 3e db ac 0c be 59 e3 20 be
       0.61091745 0.12962207 -0.13737814 -0.15711726
0001b0 e8 56 36 3f 97 83 17 3f 66 e8 97 3e 2c df cb 3e
       0.7122636 0.59185165 0.29669493 0.39818704
0001c0 b7 80 ed 3e d9 ed 24 3d 77 7f 9a be 15 04 1d 3e
       0.46387264 0.04026589 -0.30175373 0.15333588
0001d0 d5 42 ae 3c c5 66 cf 3e cb 8f b2 3e 97 b0 25 3f
       0.021272102 0.40508094 0.3487533 0.6472258
0001e0 de 6b 19 be c0 43 0a bf 56 db 8c be 6f 0d a1 3d
       -0.14982554 -0.5400963 -0.2751109 0.078638904
0001f0 2b 53 7e bd 53 2a e5 3d 0a 6c 05 3f ff bf 1a 3f
       -0.062091034 0.11189713 0.5211798 0.6044921
000200 b1 73 8a 3e ba 5f 60 3f 45 92 82 3e c9 7a 32 3f
       0.2704139 0.8764607 0.2550222 0.69718605
000210 50 9f 05 3f 7c 2a f1 3e 1f 74 72 3e fd 65 45 3f
       0.52196217 0.47102726 0.23677109 0.77108747
000220 9d a4 1d 3f 05 4b 04 be 73 04 47 3e ef 10 36 3c
       0.61579305 -0.12919243 0.19435291 0.011112436
000230 2d 86 af bd 2f f5 de be 95 ad 61 3e 3f fe 27 bf
       -0.08570514 -0.43546435 0.22038873 -0.65622324
000240 5b 50 d2 be 72 45 88 3e e5 14 f9 3d a0 df e2 3e
       -0.4107693 0.26615483 0.121621884 0.44311237
000250 a7 af 2b 3e 03 2f 34 3f 0c a6 88 3e a8 52 f4 bd
       0.16766225 0.70384234 0.26689184 -0.11929828
000260 f9 1b 0f be 20 5d 81 3e 60 47 c5 be b7 ef ad 3e
       -0.13975514 0.2526636 -0.38531017 0.3397195
000270 ba fb ec 3d 68 7d e9 3c 2d 28 06 3f 09 4c 9a 3e
       0.115714505 0.028502181 0.52405053 0.30136135
000280 60 27 83 3e 76 cb b6 be bb fd 20 3f 2d ec 59 3f
       0.25615978 -0.35702103 0.6288716 0.85126
000290 61 f8 62 be 06 7b 5f 3e 9b 56 a2 bd 2a c6 8f 3e
       -0.22165062 0.21824273 -0.07926675 0.28080875
0002a0 05 29 db bd af c3 9f 3e 87 29 5a 3d 97 f5 03 bf
       -0.10701183 0.31203982 0.05326226 -0.51546615
0002b0 fd 37 69 be 15 0e 70 3f c6 f0 b8 bd 0f 42 76 3f
       -0.22775264 0.9377149 -0.09030299 0.9619455
0002c0 07 1d 04 3e c1 09 d0 3e fb a7 c8 3e 8c 68 14 bf
       0.12901698 0.40632442 0.3919066 -0.57972026
0002d0 63 bd da bc 95 97 72 be 0b 34 0f be 0d cc 68 3e
       -0.026701635 -0.23690636 -0.13984697 0.22734089
0002e0 8a 6f f7 3e b4 21 a5 3e 9e 77 83 be 1f 94 5a 3d
       0.48327285 0.32252276 -0.25677198 0.053363916
0002f0 71 48 53 3d 6e 7c 80 be ef 52 6d be 68 90 e9 bd
       0.051582757 -0.25094932 -0.23176168 -0.114044964
000300 c1 52 22 3f af 4d 6d bf 42 5c a9 3e 72 6b f6 3e
       0.6340752 -0.9269666 0.330782 0.4812885
000310 84 1c b5 3e a3 28 28 3f 86 1b dc 3e 01 c4 bd 3e
       0.35373318 0.65687007 0.4298975 0.37063602
000320 66 44 00 bd 8c 3e 5d 3e 66 e0 c4 bd 7a 6d d6 be
       -0.03131523 0.21605891 -0.09613113 -0.418804
000330 07 09 ab be 20 82 a9 3e b6 97 2f 3f a0 bf e5 3e
       -0.33405325 0.3310709 0.6859087 0.4487276
000340 54 e3 4a bf fc 22 40 bf f4 6f 00 bd 6e 7a 1f be
       -0.79253125 -0.7505338 -0.031356767 -0.15574047
000350 52 39 0e bf f6 75 11 be a4 d6 29 3f 84 58 1e 3e
       -0.55556214 -0.14205155 0.6634314 0.15463454
000360 cd e7 64 3e bf 2f cf be 46 3a 7b bd 54 d7 4b bf
       0.2235405 -0.40466115 -0.06133487 -0.7962544
000370 61 ac 7f 3e 1a f8 21 3f 24 5f 14 3f 8a 4c 1d 3f
       0.24968101 0.632692 0.57957673 0.61444914
000380 7f 84 d7 3e fb 4f 3a 3f 56 1d ff bd 41 85 26 bf
       0.42093274 0.7277829 -0.12456767 -0.6504708
000390 cc fb bf 3d 3b 52 3a bf 7f b1 17 be 23 d0 00 be
       0.09374198 -0.72781724 -0.14813803 -0.12579398
0003a0 85 dc 72 bd e4 40 cf be 07 da 89 be f3 f4 0d bf
       -0.059292335 -0.40479195 -0.26924154 -0.5545189
0003b0 d5 dc 0b be ae 72 ca 3e 18 6f ba be 9e 64 a7 3e
       -0.1365846 0.3954062 -0.36412883 0.32693952
0003c0 71 cd 6b 3e 2a 40 13 3f 2a f1 2c 3f dd 71 6b 3f
       0.23027588 0.5751978 0.6755549 0.91970617
0003d0 84 b2 55 3e ff a6 d0 be 04 c1 b4 3e 8f a9 fe 3e
       0.2086888 -0.40752408 0.3530351 0.49738738
0003e0 d7 7e f2 3e d8 3e 20 bf 34 b0 ea bd d8 66 b9 be
       0.47362396 -0.6259589 -0.11459389 -0.36211276
0003f0 48 b3 2c bd 50 1f 0a 3f ea 7f db be 94 33 a5 be
       -0.042163163 0.5395403 -0.42871028 -0.32265913

l1.bias f4 [8]
000000 f5 84 ab 3e b4 f9 55 3f 80 3d 0a 3f 14 ee 03 3f
       0.33499876 0.8358414 0.5400009 0.51535153
000010 aa e5 16 3f f0 41 bb 3e a2 05 57 3f 17 3c 11 3f
       0.5894419 0.36573744 0.8399297 0.56732315

l2.weight f4 [8, 8]
000000 4e a4 2b 3e 6d bc 4a 3e cc 9d 91 3f 91 14 8e 3f
       0.16761896 0.19798441 1.1376281 1.1100026
000010 ab d0 94 bf 58 58 aa 3e 8c 76 c0 3e ae 69 f8 3e
       -1.162618 0.33270526 0.37590444 0.48518127
000020 f5 5f 72 3f 65 d6 57 3f ef 37 1a bf 99 62 9b bd
       0.9467767 0.84311515 -0.602416 -0.075871654
000030 a9 91 1f 3f b3 9d 39 3f 66 1a a2 be 58 01 fd be
       0.62331635 0.72506255 -0.31660765 -0.49415088
000040 79 1b 45 3f c9 9b 96 3e be 70 37 3f 11 f9 2b 3f
       0.76995045 0.2941573 0.71656406 0.6717692
000050 86 cd 34 3f 43 67 3c bf 26 57 1d 3d 5b 66 94 bf
       0.70626104 -0.73595065 0.03841319 -1.1593736
000060 a6 18 25 bf 88 84 ca 3e 8b 96 9c be dd 4b 0c 3e
       -0.64490736 0.39554238 -0.30583605 0.13700815
000070 ec 15 c2 3f 55 62 8a bf fa 21 e2 3f 6c e6 c8 3e
       1.516294 -1.0811259 1.7666619 0.39238298
000080 08 c1 e7 3e ec fe 12 3f b2 83 60 3e 1a 2c ae 3f
       0.4526446 0.5742023 0.21925238 1.3607209
000090 1c c0 1c 3e bf 34 88 3f c2 8c 0e bf 47 8e ff be
       0.15307659 1.0641097 -0.5568353 -0.49913236
0000a0 0f 69 4b 3e 9f c6 8d 3f 01 c5 ee be 93 38 2f bf
       0.19864295 1.1076239 -0.46634677 -0.684457
0000b0 f1 51 12 3f 0b 87 9d 3f 0a 2b 8d 3c ae ea 84 3f
       0.5715628 1.2306837 0.017232437 1.0384119
0000c0 a7 ff 74 3f f2 31 04 3e 1a 68 16 3f f0 30 30 3e
       0.95702595 0.12909678 0.58752596 0.17206168
0000d0 a0 da 8c 3d 97 03 81 bf 7a 20 e4 be 33 84 5a be
       0.06877637 -1.007922 -0.44556028 -0.21339492
0000e0 dd ca 1d bf 6d 1a 2b 3f 8f 7a 8b 3f be 6c 5e bd
       -0.6163767 0.668372 1.0896777 -0.054302923
0000f0 a9 cf 89 bf 74 59 d5 bd d0 a3 5a 3f 72 35 87 3f
       -1.0766498 -0.104174525 0.8540621 1.0563185

l2.bias f4 [8]
000000 e2 7e 5e 3d f8 bb 2a be 7d a7 87 3d 24 a6 68 3f
       0.054320224 -0.16673267 0.06623743 0.9087851
000010 55 3b 9e 3e dc ca a0 3e c8 09 c9 3d bd 7a ba 3e
       0.30904642 0.3140477 0.09816319 0.36421767

l3.weight f4 [8, 8]
000000 6b aa 17 bd 13 28 ea 3e e8 d2 09 3e ef 1b ca bf
       -0.037027758 0.457337 0.1345936 -1.5789775
000010 db 19 33 3f 2a 9a 9e 3e 7f 77 e8 be c6 4e a5 bf
       0.6996133 0.30976993 -0.45403668 -1.2914665
000020 6e c0 d1 be e0 66 9b 3e 25 c4 10 3f 74 a8 4b be
       -0.40967125 0.30351925 0.5654929 -0.19888479
000030 20 96 a1 3e 5b 3c 2d bf b7 02 5c 3f 8a fa a6 bf
       0.3155985 -0.6767022 0.8594164 -1.3045208
000040 ab 74 b8 bf de ed 4a bf e0 37 a1 bf d2 33 45 3f
       -1.4410604 -0.79269207 -1.2595177 0.77032197
000050 3e 7e 94 bf 2f af 2a 3f 80 d8 1b bf a6 43 07 3e
       -1.1601026 0.6667356 -0.6087723 0.132094
000060 40 54 89 bc c9 0f ce bf f9 bd ac 3e 8a 16 4b 3f
       -0.016763806 -1.6098567 0.33738688 0.79331267
000070 43 53 ef 3e 46 45 4d bf 60 26 84 bf 4f 6c fd be
       0.4674321 -0.8018383 -1.0324211 -0.49496695
000080 4a 0a 2d 3f 15 92 9e bf dd 59 7b bf 3d a8 1a bd
       0.67593825 -1.2388331 -0.98183995 -0.0377581
000090 ad 9b a6 bf 03 0d 48 3c 8e 05 31 bd ac 3a 40 3f
       -1.3016258 0.0122101335 -0.043218188 0.75089526
0000a0 4e 1a 0f 3f c7 42 96 bf 10 77 39 3f 5f eb ab bf
       0.5589951 -1.1739129 0.724473 -1.3431205
0000b0 a4 bb ba 3e 1a 72 87 bf 43 94 10 3f cb 62 fb bb
       0.36471283 -1.0581696 0.5647623 -0.007671689
0000c0 60 40 8a bf f9 dc 0c 3f 84 79 d2 bd c0 86 0b be
       -1.0800896 0.5502468 -0.102770835 -0.13625622
0000d0 28 86 05 3e a8 31 0c 3f ac f8 aa bf 2d 15 42 bf
       0.13039458 0.5476327 -1.3357139 -0.7581356
0000e0 8b e9 26 3f 1c e5 ff be c5 09 34 bf b9 71 94 bf
       0.6520011 -0.49979484 -0.7032741 -1.1597205
0000f0 37 8a 2e 3f 9b 3d 37 3e 30 5a a9 bf ef 7a ce 3e
       0.6817965 0.17894594 -1.3230648 0.40328166

l3.bias f4 [8]
000000 02 fb b6 be 51 4b 9b bd 01 dd 9f 3e 94 fb 0d 3f
       -0.3573838 -0.07582725 0.312233 0.55462
000010 ba 71 af be cd f5 9a be 1c b2 95 be 63 a9 17 3e
       -0.34266454 -0.30265656 -0.2923745 0.1481071
